app/src/main/ml/model.tflite (tflite, 326468 bytes, 7 tensors)

conv2d_9/bias f4 [64]
0	0xbc4fd6cc	-0.012685489
1	0x3c35c50d	0.011094344
2	0xbd2325f3	-0.039831113
3	0xbc92e281	-0.017930271
4	0xbd012b46	-0.03153541
5	0xbce4d69f	-0.02793437
6	0xbc408880	-0.011751294
7	0xbc99c432	-0.018770311
8	0xbc18101c	-0.0092811845
9	0xbd045eb6	-0.032316886
10	0xbbc576e2	-0.006026135
11	0xbbc662e0	-0.0060542673
12	0x3c633514	0.013867635
13	0xbd615481	-0.05501223
14	0x3b833ce1	0.00400506
15	0x3d04eab2	0.032450385
16	0x3c0d9525	0.008641516
17	0xbc0e2a24	-0.008677039
18	0xbbc64e44	-0.0060518105
19	0xbc336af2	-0.010950791
20	0xbcfd35ea	-0.030909497
21	0xbc58d668	-0.013234712
22	0x39d543ca	0.00040677033
23	0x3bd0b0e6	0.006368744
24	0xbd10d3c4	-0.035358205
25	0xb90d6a4e	-0.0001348641
26	0xbd17f480	-0.037098408
27	0xbd128a4a	-0.035776414
28	0x3cd8130b	0.026376268
29	0x3c10eacf	0.008845045
30	0x3c0c3fc8	0.0085601285
31	0xbb94fe7a	-0.0045469375
32	0xbc5480fd	-0.012970206
33	0x3d2c2045	0.042022962
34	0x3b169dde	0.002298228
35	0xbbffee81	-0.0078104143
36	0xbc999c54	-0.0187513
37	0xbc9be8d5	-0.019031921
38	0xbbcaf5bb	-0.006193844
39	0xbc165081	-0.009174467
40	0x38af4488	8.357415e-05
41	0xbb80eed3	-0.00393472
42	0xbb9a2708	-0.00470436
43	0xbb37ad50	-0.0028026886
44	0xbd20fa49	-0.03930119
45	0xbbd548ee	-0.006508938
46	0xbc7e4f84	-0.015521888
47	0xbc164682	-0.009172084
48	0x3bc31b8b	0.005954211
49	0xbc647100	-0.013942957
50	0xbc2c02e7	-0.010498739
51	0x3d0aa5da	0.033849575
52	0x3ba21a30	0.0049469694
53	0x3baf4488	0.0053487457
54	0xbcc90e58	-0.024542972
55	0xbc52cb88	-0.012865908
56	0xbb50ba88	-0.0031849463
57	0xbc894b5a	-0.016759563
58	0xbc28d678	-0.01030504
59	0xbd319f21	-0.043364648
60	0xbb8841d1	-0.0041582366
61	0x3d9cb505	0.07651714
62	0xbbacec4c	-0.005277192
63	0xbd09d8a5	-0.033653874

conv2d_11/bias f4 [64]
0	0x3d9e5b88	0.07732302
1	0xbae8e165	-0.0017767368
2	0x3d6ed838	0.05831167
3	0xbc87517e	-0.01651835
4	0xbbecdc2f	-0.0072283964
5	0xbd44e7ce	-0.04807263
6	0xbccc46c9	-0.024936097
7	0xbd2fa232	-0.04287929
8	0x3ca67107	0.020317568
9	0x3c5b51bc	0.013386186
10	0x3d9b628c	0.07587156
11	0x3c4806ec	0.012208682
12	0xbd3fbf28	-0.04681316
13	0xbd3801d0	-0.044923604
14	0xbcbb76a2	-0.022883717
15	0xbd0f7c79	-0.035030816
16	0x3cb72384	0.022355802
17	0xbd1f2fe0	-0.038864017
18	0xbcaf2a98	-0.021382615
19	0xbd1751d8	-0.036943287
20	0xbde87e32	-0.11352195
21	0xbc6ee414	-0.014580745
22	0xbdae3819	-0.085067935
23	0xbc176bbd	-0.009241995
24	0xbb022e92	-0.0019864184
25	0xbe22b068	-0.15887606
26	0xbd87b428	-0.06626159
27	0xbd7973ef	-0.06090158
28	0xbdb9305c	-0.09042427
29	0x3ddc01ba	0.10742517
30	0xbcdb3cd3	-0.026762402
31	0xbd402861	-0.04691351
32	0x3cdeb378	0.027185187
33	0xbc86eed9	-0.016471313
34	0xbdf53f7b	-0.119749986
35	0x3d08d3a9	0.03340498
36	0xbd8c0186	-0.06836228
37	0x3cfd3f1c	0.030913882
38	0xbd001d43	-0.031277906
39	0xbdef8480	-0.11695194
40	0x3c0a1229	0.008427181
41	0x3d7a18e7	0.061058905
42	0xbdec0c65	-0.115258016
43	0x3de38d71	0.11110962
44	0xbdb7863f	-0.08961152
45	0xbd42e67c	-0.04758309
46	0xbd79d188	-0.06099084
47	0xbd0d65b9	-0.03452084
48	0xbd32e8f7	-0.043679204
49	0x3d9692bc	0.07352206
50	0x3cc6830a	0.024232406
51	0x3d138301	0.036013607
52	0x3d02881c	0.031868085
53	0x3d9111bf	0.07083463
54	0xbd7d651d	-0.061864007
55	0xbcbf6659	-0.023364233
56	0x3d9b9d89	0.07598407
57	0xbcb85b8b	-0.022504589
58	0xbc469ce4	-0.012122367
59	0xbd50043c	-0.05078529
60	0xbd2a0104	-0.041504875
61	0xbe0115db	-0.12605993
62	0x3da76ffa	0.08175655
63	0xbceeadc9	-0.029135602

conv2d_10/bias f4 [64]
0	0x3cf6c44b	0.030122897
1	0xbcfc08d1	-0.030765923
2	0xbc1875f2	-0.009305464
3	0xbbdc0012	-0.0067138756
4	0xbcc8c082	-0.024505857
5	0x3d126255	0.035738308
6	0xbd961435	-0.07328073
7	0xbdd853b6	-0.105628416
8	0xbd37f406	-0.044910453
9	0x3caa0370	0.020753592
10	0x3d4e4cc3	0.050366174
11	0x3d12cfe6	0.0358428
12	0xbc2be4ad	-0.010491532
13	0xbc0b401a	-0.00849917
14	0xbe097569	-0.13423695
15	0xbcfba8c0	-0.030720115
16	0xbdeab35f	-0.114599936
17	0xbdae0d79	-0.084986635
18	0xbd41878a	-0.0472484
19	0x3a4a88c4	0.0007726068
20	0xbcd8e85c	-0.026477985
21	0xbe055bae	-0.13023254
22	0xbc794dc0	-0.015216291
23	0xbce42111	-0.027847799
24	0xbd1c6eb0	-0.038191497
25	0xbd6b6c83	-0.05747653
26	0x3c218c33	0.009860086
27	0xbdc69f37	-0.096983366
28	0x3cdd5e13	0.027022397
29	0xbcafb191	-0.021446975
30	0xbc084b72	-0.008318769
31	0xbc291359	-0.010319554
32	0xbd0fb20d	-0.03508191
33	0x3ab74c84	0.0013984595
34	0xbd8d570b	-0.06901368
35	0xbd24b6f7	-0.04021355
36	0xbc80f284	-0.01574064
37	0xbdc5d499	-0.096596904
38	0xbcc1d73f	-0.023662208
39	0xbd09b12f	-0.03361624
40	0xbc9dcc8b	-0.019262573
41	0x3d4a2ab3	0.049357127
42	0xbce1e76d	-0.027576173
43	0xbc268d85	-0.010165577
44	0xbb2870a5	-0.0025701907
45	0xbc82d8ba	-0.015972484
46	0xbdbe2cec	-0.09285912
47	0x3cab9e06	0.020949375
48	0xbc8db318	-0.017297313
49	0xbcdf3b47	-0.027249945
50	0xbd07b6c5	-0.033133287
51	0xbd638393	-0.0555454
52	0xbcb17bbb	-0.021665445
53	0xbd2530a6	-0.040329598
54	0xbd1bdee1	-0.03805435
55	0xbd4b9125	-0.049698967
56	0xbc0d3fe9	-0.008621194
57	0x3cd09a72	0.02546427
58	0xbc87df30	-0.016585916
59	0xbbeb18fc	-0.007174609
60	0xbcbad582	-0.022806887
61	0xbdbb6d58	-0.09151715
62	0xbd99e45c	-0.07514259
63	0xbcfcffdc	-0.030883722

std.constant1 f4 [1, 6400]
0	0xbe1b7656	-0.1518186
1	0x3dde83f2	0.1086501
2	0xbe1303c8	-0.14356911
3	0xbc690a5a	-0.014223659
4	0x3c73d3ad	0.01488201
5	0xbe779862	-0.24179223
6	0x3cb157b9	0.021648275
7	0xbd6702e6	-0.05639925
8	0xbe2a23ca	-0.16615215
9	0x3d21d498	0.039509386
10	0xbd0d46e1	-0.034491424
11	0x3da1e6f8	0.07905382
12	0x3e7ffb08	0.24998105
13	0xbd02770e	-0.03185182
14	0x3acd6970	0.0015671682
15	0xbd5ef625	-0.05443396
16	0xbdba4004	-0.09094241
17	0xbc25fcbd	-0.010131058
18	0xbcbfc70a	-0.023410339
19	0x3d15ec2d	0.036602188
20	0xbe14b4e2	-0.14522126
21	0xbaf9323a	-0.0019012161
22	0xbd1f1291	-0.038836066
23	0xbd8cb2c8	-0.06870037
24	0xbdab062e	-0.08350788
25	0x3cab9192	0.020943437
26	0x3cff9354	0.031198181
27	0xbea05a64	-0.31318963
28	0x3c771801	0.015081407
29	0xbde6a887	-0.11262613
30	0xbcf3691b	-0.029713204
31	0x3c1835b8	0.009290151
32	0x3c980dd0	0.018561274
33	0x3e31b64a	0.17354694
34	0xbeabf57f	-0.33585736
35	0xbe0518e6	-0.12997779
36	0x3d637c37	0.055538382
37	0xbd5853a9	-0.05281416
38	0xbbf8be0c	-0.0075910147
39	0xbc20a09a	-0.009803915
40	0xbd13e76d	-0.036109377
41	0xbdafea21	-0.085895784
42	0xbd3b61ba	-0.045747496
43	0xbe5b251b	-0.21400873
44	0xbd05a6c8	-0.032629758
45	0xbcc2c90b	-0.023777505
46	0x3d96c0dc	0.07361004
47	0x3d3d6c2c	0.04624574
48	0xbc938311	-0.018006833
49	0x3da5e344	0.08099988
50	0xbceb5bd5	-0.028730312
51	0xbd5be02b	-0.05368058
52	0x3d9d96dc	0.0769479
53	0xbdcd5c1b	-0.10027333
54	0xbe12ff83	-0.14355282
55	0x3c8f85c1	0.017519834
56	0xbe04440a	-0.1291658
57	0xbd4db97a	-0.050225712
58	0xbdfc68a9	-0.1232465
59	0x3babbb7b	0.0052408553
60	0xbcd97a9e	-0.026547726
61	0xbea0a442	-0.3137532
62	0xbe425ec7	-0.18981467
63	0xbea1c450	-0.31595087
64	0xbdffe2a8	-0.12494403
65	0x3c9d8c86	0.019232046
66	0xbe2393b3	-0.15974312
67	0xbbacb81f	-0.0052709724
68	0x3ce55a69	0.027997212
69	0xbd39ed21	-0.04539216
70	0x3c0a892e	0.008455558
71	0xbc4e2a6b	-0.012583355
72	0x3cd82e4c	0.026389264
73	0x3ba52065	0.005039262
74	0xbd8acb56	-0.067770645
75	0xbd829f7b	-0.06378075
76	0x3da5aa48	0.08089119
77	0xbd16b1da	-0.036790706
78	0xbce8113b	-0.028328529
79	0xbc910929	-0.017704563
80	0xbd408b5b	-0.0470079
81	0x3e154fee	0.14581272
82	0x3b82b343	0.003988655
83	0x39d7a936	0.00041134068
84	0xbe6694a3	-0.22517638
85	0xbd75a8fb	-0.059975605
86	0xbd9f0af3	-0.0776576
87	0xbc39ea30	-0.011347339
88	0xbcfcf519	-0.03087859
89	0x3db8b093	0.09018054
90	0xbcbe0501	-0.023195745
91	0xbf0344e6	-0.51277006
92	0x3d23856d	0.039922167
93	0xbdcf34af	-0.101174705
94	0xbc8d0df2	-0.017218564
95	0x3dc737b6	0.09727423
96	0x3c6f6ca4	0.014613304
97	0x3da8c8cc	0.08241424
98	0xbe3edf07	-0.18639766
99	0xbe01ffd8	-0.12695253
100	0x3cc1bea1	0.02365047
101	0x3d7d46be	0.061835043
102	0x3ccf8dc8	0.025336161
103	0xbe0012d1	-0.12507178
104	0x3d7b8277	0.061403718
105	0xbd3a65f1	-0.045507375
106	0x3db9b791	0.09068216
107	0xbe125eeb	-0.14294021
108	0xbd894290	-0.06702149
109	0xbc5750f4	-0.013141859
110	0x3ccd4d4b	0.02506127
111	0x3cb012e1	0.021493377
112	0xbce88e11	-0.028388055
113	0xbc1774f9	-0.009244197
114	0xbca26603	-0.019824034
115	0xbc418268	-0.011810876
116	0x3b77f701	0.0037836435
117	0xbdcfb647	-0.101421885
118	0xbe3d6d99	-0.1849884
119	0x3acde968	0.0015709819
120	0xbdc07c22	-0.093986765
121	0xbda1dc8e	-0.079033956
122	0x3d5382bc	0.05163835
123	0x3be2fe1a	0.006927264
124	0x3ca0a7f1	0.01961133
125	0xbe804732	-0.25054318
126	0xbddb63bb	-0.107123815
127	0xbd35e534	-0.04440804
128	0xbc063039	-0.008190208
129	0xbd58d454	-0.052936867
130	0x3c87beba	0.016570438
131	0xbbacb1db	-0.0052702255
132	0x3d57b4cb	0.052662652
133	0xbc4f7c9d	-0.012663987
134	0x3c52b1dc	0.012859788
135	0xbd722783	-0.059119713
136	0xbdc24888	-0.094864905
137	0xbe62b01a	-0.2213749
138	0xbd77a181	-0.060456757
139	0xbc0840ba	-0.008316213
140	0xbd671bc6	-0.05642297
141	0xba8e68bc	-0.0010864954
142	0x3bcaaf52	0.0061854506
143	0x3c9752e2	0.018472139
144	0x3b0e5796	0.0021719686
145	0xbda1b629	-0.078960724
146	0xbc4dfb67	-0.012572146
147	0xbd31d7f7	-0.04341885
148	0xbe0e444f	-0.13893245
149	0xbd69d9f3	-0.05709262
150	0xbcf45030	-0.029823393
151	0xbc64a265	-0.0139547335
152	0xba08c7a7	-0.0005217739
153	0x3d46918b	0.048478644
154	0xbd9a0be7	-0.075218014
155	0xbcdc5e2e	-0.026900377
156	0x3d06c4bb	0.03290246
157	0xbcc48c09	-0.023992555
158	0x3cb69d49	0.022291796
159	0xbd60966f	-0.054830965
160	0xbda52a3b	-0.080646954
161	0x3d987b1a	0.07445355
162	0x3db7997b	0.08964821
163	0xbc6dd98c	-0.014517199
164	0xbd4c6664	-0.049902335
165	0xbbd82a96	-0.0065968735
166	0xbbcb9279	-0.0062125293
167	0xbde43470	-0.11142814
168	0xbd83de0b	-0.06438836
169	0xbdac0a7d	-0.08400438
170	0xbe69bc02	-0.22825626
171	0xbc23f643	-0.010007444
172	0xbcf6b818	-0.03011708
173	0xbb4aa3db	-0.003092042
174	0xbc951826	-0.018199991
175	0x3d6930e0	0.056931376
176	0x3c49a4bc	0.012307342
177	0xbd11fccf	-0.035641488
178	0x3dadf617	0.084942035
179	0xbdecddf6	-0.11565773
180	0xbce21bce	-0.027601149
181	0x3ca40703	0.020022875
182	0xbc7397c0	-0.014867723
183	0x3becf786	0.0072316555
184	0xbb9164a9	-0.0044370485
185	0x3d37b26f	0.044847902
186	0xbadb8c22	-0.0016750137
187	0xbc910bb6	-0.01770578
188	0xbcef7f94	-0.029235639
189	0xbe2916a0	-0.16512537
190	0x3b9397be	0.004504173
191	0x3dfe86e3	0.12428071
192	0xbd03069e	-0.031988733
193	0x3de62197	0.112368755
194	0x3cdd0920	0.02698189
195	0x3ce202a9	0.02758916
196	0xbcb5b342	-0.022180203
197	0x3b8bc458	0.0042653494
198	0x3ca023ef	0.019548384
199	0xbe19ad45	-0.15007503
200	0x3c52c6fc	0.012864824
201	0xbe31c939	-0.17361917
202	0xbd57fb25	-0.052729744
203	0x3d659722	0.056052335
204	0xbd659921	-0.05605424
205	0x3cd3e952	0.025868092
206	0x3cbe7df3	0.023253417
207	0x3c26bd15	0.010176917
208	0xbb04022b	-0.0020142894
209	0x3e01356c	0.12618035
210	0xbc6f26a7	-0.014596618
211	0xbd4bfa78	-0.049799412
212	0xba2014f0	-0.00061066356
213	0x3df0bb5d	0.11754487
214	0xbd16a31b	-0.036776643
215	0xbd69e7b2	-0.057105727
216	0x3d0bcef7	0.034132924
217	0xbcae75b9	-0.021296369
218	0xbcd29b44	-0.025708802
219	0xbd0c7de8	-0.03429976
220	0xbdc92508	-0.09821516
221	0xbd688692	-0.05676896
222	0x3c6ad10f	0.01433207
223	0xbc15f59e	-0.009152798
224	0xbddb2fd5	-0.107024826
225	0x3e4cefa6	0.20013294
226	0xbda6b81f	-0.08140587
227	0xbc821bdd	-0.015882427
228	0x3cd3de97	0.025862975
229	0xbda0b06a	-0.07846148
230	0x3c876aa4	0.016530342
231	0x3ae3ba7a	0.00173743
232	0x3caff2e2	0.02147812
233	0xbd42575c	-0.047446594
234	0xbdee0654	-0.11622301
235	0xbd9f5f6f	-0.077818744
236	0xbc0eedd6	-0.008723697
237	0x3b6490da	0.0034876377
238	0x3d854caf	0.06508767
239	0x3d1c4082	0.038147457
240	0xbcfa098f	-0.030522136
241	0xba6764f0	-0.00088269915
242	0x3da66b8a	0.0812598
243	0xbc9b26b4	-0.018939354
244	0xbd834666	-0.06409912
245	0xbc886310	-0.0166488
246	0xbc04c200	-0.008102894
247	0xbc50eede	-0.012752263
248	0xbcbe1089	-0.023201244
249	0x3e30a10b	0.17248933
250	0x3d6896d0	0.05678445
251	0xbcdfda75	-0.027325848
252	0x3cb4745f	0.022028146
253	0xbe15dd22	-0.14635137
254	0xbce9060e	-0.02844527
255	0x3e135abe	0.14390084

std.constant2 f4 [64, 3, 3, 1]
0	0xbe11d1bc	-0.14240164
1	0x3cdbdc9d	0.026838595
2	0xbd985a8e	-0.07439147
3	0xbd31bcd1	-0.04339296
4	0xbd2dc864	-0.042427436
5	0xbe0de888	-0.13858235
6	0x3c7d4f0c	0.015460741
7	0xbd845b95	-0.064627804
8	0x3d6436a0	0.055716157
9	0xbe3a6420	-0.18202257
10	0xbdedf605	-0.1161919
11	0xbe2dcd94	-0.16972953
12	0x3d04a572	0.032384343
13	0xbcd72b57	-0.026265783
14	0x3c39bfa1	0.011337192
15	0x3dc5a65a	0.0965087
16	0x3e27b6bd	0.16378303
17	0xbe128c86	-0.14311418
18	0xbdc742ce	-0.09729539
19	0x3d8dc052	0.06921448
20	0x3db2b9b6	0.08726828
21	0xbc4bea7a	-0.01244604
22	0x3dd33fb5	0.103148855
23	0x3d0cf567	0.03441372
24	0xbda9674e	-0.08271657
25	0x3dd144a5	0.10218171
26	0x3deb41d3	0.11487164
27	0xbd22bded	-0.03973191
28	0xbd44aad5	-0.04801448
29	0xbcbd01f1	-0.023072215
30	0x3e5039a4	0.20334488
31	0xbd7968f4	-0.060891107
32	0xbde54c86	-0.11196236
33	0xbe005497	-0.12532268
34	0xbdad8631	-0.084728606
35	0x3cd962a9	0.026536303
36	0xbd93c582	-0.07215406
37	0x3d122fd1	0.035690133
38	0xbe12ac41	-0.14323522
39	0xbcdff6f9	-0.027339445
40	0x3cd3c5d4	0.025851168
41	0x3c30c818	0.010789894
42	0xbd49e9ca	-0.049295224
43	0xbd0f6423	-0.035007607
44	0xbd5c0034	-0.05371113
45	0xbf3ddcae	-0.74164855
46	0xbf2c65fe	-0.6734313
47	0xbec77615	-0.38957277
48	0xbe96ba9f	-0.29439256
49	0xbe797b15	-0.24363358
50	0x3d47e248	0.048799783
51	0x3d432351	0.047641102
52	0xbcd1617b	-0.025559178
53	0x3e3dd51c	0.18538326
54	0xbce18cc9	-0.027532952
55	0x3d7d7de2	0.06188763
56	0xbdf98cf5	-0.121850885
57	0xbdd8e904	-0.10591319
58	0xbdcae320	-0.09906602
59	0x3cc740e4	0.024322934
60	0x3d253489	0.040333305
61	0xbdcb1046	-0.09915213
62	0xbce91959	-0.02845447
63	0x3dd51555	0.104044594
64	0xbd62bf7a	-0.055358388
65	0xbda22ae3	-0.07918336
66	0xbe0f0f10	-0.1397059
67	0x3e220d5a	0.15825406
68	0xbda0a39c	-0.07843706
69	0xbdf2ebd5	-0.11861388
70	0x3d5e7656	0.054312073
71	0x3b1387f1	0.0022511447
72	0x3e0fd90f	0.14047645
73	0x3d3765f5	0.04477497
74	0x3de39306	0.11112027
75	0xbdc289be	-0.094989285
76	0xbd2f52a3	-0.042803418
77	0xbd387d5d	-0.04504143
78	0xbe1fae70	-0.15593886
79	0xbdfaff09	-0.12255675
80	0xbd6ba4b3	-0.057530116
81	0xbd4f2617	-0.050573435
82	0xbdb4f5c9	-0.08835942
83	0x3bbee279	0.0058253375
84	0xbd98e3ad	-0.07465301
85	0x3cbcc80d	0.02304461
86	0xbd07a71e	-0.03311836
87	0x3df362dd	0.11884091
88	0x3c4fb02e	0.012676282
89	0x3df2ae79	0.11849684
90	0xbc8c6bca	-0.017141242
91	0x3e07a032	0.13244703
92	0xbd2be0c0	-0.041962385
93	0x3df99cbc	0.12188098
94	0xbe1f75af	-0.15572236
95	0xbdc41b65	-0.095755376
96	0xbd44b07d	-0.048019875
97	0x3d3eb12d	0.046555687
98	0xbdc903e6	-0.09815197
99	0x3d373676	0.044729672
100	0xbcab044f	-0.020876078
101	0xbe31554a	-0.17317691
102	0xbd5f0ac8	-0.05445364
103	0xbc67f961	-0.014158578
104	0xbc4c018c	-0.012451541
105	0x3e363435	0.17793353
106	0x3ce92112	0.028458152
107	0xbda7d466	-0.08194809
108	0xbe0ab313	-0.13544874
109	0xbd290b15	-0.041270334
110	0x3e365aae	0.17808029
111	0xbe148da2	-0.14507154
112	0xbe04a59e	-0.12953803
113	0x3db18241	0.08667422
114	0xbda453e2	-0.08023812
115	0x3da81555	0.08207194
116	0xbbc9d4dc	-0.006159408
117	0x3c1df11f	0.009640007
118	0xbd748af7	-0.05970284
119	0xbd0995f1	-0.03359026
120	0xbdc25922	-0.09489657
121	0xbdc9740d	-0.09836588
122	0x3a8418b9	0.0010078169
123	0x3c970a0d	0.01843741
124	0x3c9d81aa	0.019226868
125	0x3d13cc9f	0.036083814
126	0x3d9afd11	0.075678
127	0x3d45074b	0.04810266
128	0x3ca7d444	0.020486958
129	0xbe01edc0	-0.1268835
130	0xbc60900d	-0.013706219
131	0xbd9567c4	-0.07295182
132	0xbdcd57c2	-0.10026504
133	0xbe1ad874	-0.15121633
134	0x3e03c500	0.12868118
135	0xbe5e5586	-0.21712312
136	0xbe0d04d4	-0.13771373
137	0xbdd4866e	-0.10377203
138	0xbd313b37	-0.043269362
139	0xbe87bafb	-0.26509842
140	0xbe28d8d3	-0.16488962
141	0xbe5889a3	-0.21146254
142	0xbe1be7f0	-0.15225196
143	0xbe68e1b1	-0.22742344
144	0xbe0e8205	-0.13916786
145	0xba9bb3c8	-0.001187914
146	0xbd673f47	-0.05645683
147	0x3e5a4796	0.2131637
148	0xbdd2875a	-0.102797225
149	0xbd2ef384	-0.042712703
150	0xbdbccfc0	-0.09219313
151	0xbdce9ec4	-0.10088876
152	0xbdee588e	-0.11637984
153	0x3dee5237	0.11636775
154	0x3c993077	0.018699868
155	0x3e24f38a	0.16108528
156	0x3d052c35	0.032512862
157	0x3d0d4caa	0.03449694
158	0x3ba3a4dc	0.004994018
159	0xbe157d91	-0.14598681
160	0xbe7d5426	-0.24739131
161	0xbe402672	-0.18764666
162	0xbdbc00f9	-0.09179873
163	0x3da0731f	0.078344576
164	0xbe01d037	-0.12677084
165	0x3e1e3649	0.15450396
166	0x3d80b992	0.06285395
167	0xbd040e11	-0.032239977
168	0xbe11e0ac	-0.14245862
169	0xbd2e566e	-0.042562895
170	0xbd811835	-0.06303445
171	0xbdb8bc5a	-0.090203
172	0x3d175a6c	0.036951467
173	0xbd29c37c	-0.041446194
174	0x3e779472	0.24177721
175	0xbd9abdfa	-0.075557664
176	0xbd7a8ebb	-0.061171275
177	0xbdd58e35	-0.104275145
178	0x3c8d83f3	0.017274832
179	0xbdba2f8d	-0.09091101
180	0x3c91238b	0.017717144
181	0xbc288c7c	-0.0102874
182	0xbab93ee3	-0.0014133122
183	0xbda53750	-0.08067191
184	0xbdef94a8	-0.11698276
185	0xbdf6da7d	-0.12053392
186	0xbd6fbd24	-0.058529988
187	0x3cd9e4bc	0.026598327
188	0x3ca37c99	0.019956874
189	0xbe0915c6	-0.13387212
190	0x3c110aa0	0.008852631
191	0x3e0d7113	0.13812666
192	0xbe23c1a9	-0.15991844
193	0x3e02990a	0.12753692
194	0x3da2ce0b	0.07949456
195	0xbdbeb4e3	-0.09311845
196	0x3d898af3	0.067159556
197	0xbdbce591	-0.09223474
198	0x3d8bd9c5	0.068286456
199	0xbe1a7dd0	-0.15087056
200	0xbe181cfd	-0.14854808
201	0x3de2a811	0.110672124
202	0xbda462ea	-0.08026679
203	0xbd23e853	-0.040016484
204	0x3e59a874	0.21255666
205	0x3d979e64	0.074032575
206	0xbddb5351	-0.10709251
207	0xbe8493a0	-0.2589388
208	0xbe5bd8f6	-0.21469483
209	0xbe904bde	-0.28182882
210	0x3daa11b0	0.08304155
211	0x3db5642d	0.08856998
212	0x3da39990	0.07988274
213	0xbc6d2362	-0.014473768
214	0x3d5b0de7	0.053480055
215	0x3c941dc1	0.018080594
216	0x3dbcb1b6	0.09213583
217	0x3d8a0a4b	0.067402445
218	0x3db3ff48	0.087889254
219	0x3d6b6930	0.05747336
220	0x3da8db1b	0.08244916
221	0xbbf7252a	-0.007542272
222	0x3dca3319	0.09873027
223	0x3d44ec4a	0.048076905
224	0xbd87ab63	-0.06624486
225	0xbd882388	-0.06647402
226	0xbd06b9e6	-0.03289213
227	0xbdb98bb4	-0.090598494
228	0x3d80f33a	0.06296392
229	0x3d5f8132	0.05456657
230	0xbc226ffd	-0.009914395
231	0x3e545e04	0.20738989
232	0xbdeeec41	-0.116661556
233	0xbe28fc1a	-0.16502419
234	0xbf1a099d	-0.6017092
235	0xbf25cfcc	-0.647702
236	0xbef43b55	-0.47701517
237	0xbe1b7d67	-0.15184556
238	0xbeb4f1d0	-0.35340738
239	0xbdca6a40	-0.09883547
240	0x3db7ed69	0.08980829
241	0x3e174482	0.14772227
242	0x3c91305f	0.01772326
243	0xbdbd3b02	-0.092397705
244	0x3d86b435	0.065773405
245	0xbe218bc7	-0.15775977
246	0xbdb786f2	-0.08961286
247	0x3c8bf8de	0.017086443
248	0x3dfc5b8e	0.1232215
249	0xbd612a28	-0.054971844
250	0xbe295cf2	-0.16539362
251	0x3bb6c831	0.005578064
252	0x3e2dbd2e	0.16966698
253	0x3dda938c	0.106726736
254	0xbd88e3f8	-0.066841066
255	0x3e11beaf	0.14232896

std.constant3 f4 [64, 3, 3, 64]
0	0x3cfb8ad8	0.030705854
1	0xbd2f1689	-0.0427461
2	0xbd16aac3	-0.036783945
3	0x3dc40db1	0.09572924
4	0xbcfbe8e5	-0.030750701
5	0x3c2f2da3	0.010692033
6	0x3c607ae1	0.013701172
7	0x3e16bfc2	0.14721587
8	0xbc7c3ee0	-0.01539585
9	0x3d7bf04b	0.061508458
10	0xbc1de083	-0.009636047
11	0xbad7d0b2	-0.0016465394
12	0x3cc6ecae	0.02428278
13	0xbb9dfc5c	-0.0048213433
14	0x3deb6d6b	0.11495479
15	0xbddbea5f	-0.10738062
16	0x3e0050f0	0.12530875
17	0xbd3d5994	-0.046228006
18	0x3cba78ed	0.02276274
19	0x3da57f37	0.08080905
20	0x3d39490a	0.04523567
21	0x3d44c40d	0.04803853
22	0xbd9bd0d0	-0.07608187
23	0x3db5ab6a	0.08870585
24	0x3cd614ff	0.026133059
25	0x3cd2771f	0.025691567
26	0x3e1516bf	0.14559458
27	0x3d26b204	0.040697113
28	0x3d4ceaee	0.050028734
29	0x3d537cd0	0.051632702
30	0x3b8eac8d	0.0043540657
31	0x3dd8358f	0.105570905
32	0x3d5dcae8	0.054148585
33	0xbe1087e7	-0.14114343
34	0x3e05fe96	0.13085398
35	0x3dab9837	0.08378642
36	0xbd82ca86	-0.063862845
37	0x3d90123f	0.0703473
38	0x3d602919	0.054726694
39	0x3dde3f7f	0.10851955
40	0x3dbdf8fd	0.09276006
41	0xbc9a5367	-0.018838597
42	0x3dd6c6a4	0.104871064
43	0x3d46d002	0.048538215
44	0x3c82a5a7	0.01594813
45	0x3e936e52	0.28795105
46	0x3d9c8ed6	0.07644431
47	0x3e459d3f	0.19298266
48	0x3da6ea63	0.081501745
49	0x3dece2f6	0.11566727
50	0x3d50bde5	0.050962348
51	0x3daec437	0.08533519
52	0x3d8ca4fb	0.06867405
53	0x3e12512d	0.14288779
54	0x3d71f27e	0.05906915
55	0x3c02f393	0.007992643
56	0x3dc93320	0.098242044
57	0x3e3b12b4	0.18268853
58	0xbd094fca	-0.03352336
59	0x3ce2d0ef	0.027687518
60	0x3dd4d376	0.103918955
61	0xbdff8f78	-0.12478536
62	0x3d1b9885	0.03798725
63	0x3d660817	0.05616006
64	0x3cb2562f	0.021769611
65	0x3ddf242f	0.10895573
66	0x3cf7ed00	0.030264378
67	0x3d8c1b2e	0.068411216
68	0xbc9ab117	-0.018883271
69	0x3ddb8d3d	0.107202984
70	0xbda9d55e	-0.0829265
71	0x3d6b7eac	0.05749385
72	0x3ceacbfd	0.028661722
73	0xbd20fd11	-0.039303843
74	0xbbc3b87f	-0.0059729214
75	0x3d693cc8	0.05694273
76	0x3b45298c	0.0030084578
77	0xbb9a500c	-0.0047092494
78	0x3c4aa932	0.012369441
79	0xbdbe338e	-0.09287177
80	0x3e0e1465	0.13874967
81	0xbd92dde9	-0.07171232
82	0x3c93c8cc	0.018040083
83	0x3e640664	0.22268063
84	0x3d74a8f8	0.059731454
85	0x3c5e75cf	0.013577892
86	0x3de304a2	0.11084868
87	0x3da39c40	0.07988787
88	0xbdbc309b	-0.09188958
89	0x3c8c2406	0.017107021
90	0x3e4ba8ab	0.1988856
91	0x3d04a4ae	0.032383613
92	0x3dc0e233	0.09418144
93	0x3d3a3f02	0.045470245
94	0xbd794a1f	-0.060861703
95	0x3bbb1236	0.005708958
96	0x3c619ad6	0.013769826
97	0x3c6014ec	0.013676863
98	0x3c56c7d6	0.013109168
99	0x3ddfeffd	0.10934446
100	0x3a0e2421	0.0005422254
101	0x3dd7dead	0.10540519
102	0x3d6719ae	0.056420974
103	0xbd3683a5	-0.04455914
104	0xbd1d78f2	-0.03844542
105	0x3da432b7	0.080174856
106	0x3cfba3e0	0.03071779
107	0x3cc5d861	0.024151029
108	0x3d627033	0.055282783
109	0xbd1879c4	-0.0372255
110	0xbce785bd	-0.028262014
111	0xba34c46b	-0.00068957236
112	0x3cce1572	0.02515671
113	0x3d704a64	0.058664694
114	0xbb2d97fe	-0.00264883
115	0xbdf0aaf4	-0.11751357
116	0xbc29407f	-0.0103303185
117	0x3e369931	0.17831875
118	0xbd70caa5	-0.058787007
119	0x3c845198	0.016152188
120	0x3d90856d	0.07056699
121	0x3e274725	0.16335733
122	0xbd3d5913	-0.046227526
123	0x3b7ad24e	0.0038272324
124	0x3d40d108	0.047074348
125	0xbe6368ab	-0.22207896
126	0x3d78bead	0.060728718
127	0x3d0c306a	0.03422586
128	0xbd3c9713	-0.046042513
129	0xbd7cf498	-0.0617567
130	0x3c1b2a33	0.00947051
131	0x3c88e6bc	0.016711585
132	0xbd5f4d9c	-0.054517373
133	0xbd8bcf99	-0.068267055
134	0xbd827122	-0.063692346
135	0x3d8c5c08	0.06853491
136	0xbd32cef3	-0.043654393
137	0x3c7139f4	0.01472329
138	0xbc4c22f3	-0.012459504
139	0x3bbbd9e5	0.005732762
140	0xbd7eed7e	-0.06223821
141	0xbce922db	-0.028459003
142	0x3c6f4cac	0.014605682
143	0x3cece889	0.028919475
144	0x3dff5eef	0.12469279
145	0xbd5b6034	-0.053558543
146	0x3d162df7	0.03666493
147	0x3c96d9e4	0.018414445
148	0xbb7d843a	-0.003868355
149	0xbd9a7b60	-0.07543063
150	0x3d80a324	0.062811166
151	0x3c9845b4	0.018587925
152	0xbd03e68a	-0.03220228
153	0x3d45982d	0.04824083
154	0x3da3d8b0	0.08000314
155	0xbd44e1a3	-0.048066746
156	0x3b9f1e79	0.0048559275
157	0xbcddcd01	-0.027075293
158	0xbc1f679d	-0.009729293
159	0xbd10388e	-0.035210185
160	0x3d6dd965	0.05806865
161	0xbd911a3b	-0.07085081
162	0xbdf8c1f9	-0.12146372
163	0x3da484a8	0.08033115
164	0xbd7702a9	-0.06030527
165	0x3ce9d667	0.028544618
166	0xbd169805	-0.03676607
167	0xbdbdaec1	-0.09261847
168	0xbd912c9b	-0.07088586
169	0xbcff64d5	-0.03117601
170	0xbcaaaf07	-0.020835413
171	0x3d637570	0.05553192
172	0xbdad1ffb	-0.084533654
173	0x3daa1d6c	0.08306393
174	0xbd29c368	-0.04144612
175	0xbd9c746d	-0.07639394
176	0xbcba5df6	-0.022749882
177	0xbbf56264	-0.0074885357
178	0xbc735336	-0.014851382
179	0xbc8e4273	-0.01736567
180	0xbdfa1a21	-0.12212015
181	0x3e1d4600	0.15358734
182	0xbcd29584	-0.02570606
183	0x3d90f245	0.07077459
184	0xbc82687a	-0.015918959
185	0x3bd37504	0.0064531583
186	0xbc13e427	-0.009026564
187	0xbd94ac6d	-0.0725945
188	0x3cbf82af	0.023377744
189	0xbe26f4dd	-0.16304345
190	0x3c996999	0.01872711
191	0x3b4193e0	0.0029537603
192	0xbd8f3dd7	-0.06994217
193	0x3d342893	0.043984007
194	0xb9eb6afd	-0.00044902405
195	0x3d919f07	0.0711041
196	0x3d35d9c7	0.04439714
197	0x3da9193f	0.082567684
198	0x3d38fbc4	0.045161977
199	0x3d872dc2	0.066005245
200	0xbd37d994	-0.044885233
201	0xbcc21b06	-0.023694526
202	0x3d7587c7	0.05994394
203	0xbd686862	-0.056740172
204	0x3e12f217	0.14350162
205	0xbc733094	-0.014843125
206	0x3d3da8ba	0.04630349
207	0xbc543765	-0.01295266
208	0x3cb4810d	0.022034192
209	0xbd629d32	-0.055325694
210	0x3d9c9dd0	0.07647288
211	0x3d9a41d8	0.0753209
212	0xbcd6cea1	-0.026221575
213	0x3d804b02	0.062643066
214	0x3d88943d	0.06668899
215	0xbdc28e0e	-0.09499751
216	0xbdac5e7b	-0.08416458
217	0x3cd293c1	0.02570522
218	0xbdbe5522	-0.092935815
219	0xbd0a5fb5	-0.03378268
220	0x3cd82d8b	0.026388904
221	0xbb86b36e	-0.004110745
222	0xbb07867c	-0.0020679524
223	0xbc908db3	-0.017645692
224	0x3c2b2fee	0.010448439
225	0xbdd48aa7	-0.10378008
226	0xbc7bd7fc	-0.015371319
227	0x3cd49d17	0.025953813
228	0xbd85fafc	-0.06542012
229	0xbc3dcdc7	-0.011584706
230	0xbcc281d8	-0.023743555
231	0xbd3f1efe	-0.046660416
232	0x3c404872	0.011736022
233	0x3da38b1c	0.079855174
234	0x3c445632	0.011983441
235	0xbcd6f064	-0.026237674
236	0x3d1d6041	0.038421873
237	0x3d89aab2	0.06722011
238	0xbd412088	-0.047150165
239	0x3dd70359	0.104986854
240	0x3c1766b8	0.009240799
241	0x3e1599ed	0.146095
242	0xbc17edc4	-0.009272996
243	0xbb485041	-0.0030565413
244	0x3db563a3	0.08856895
245	0x3e2a895c	0.16653961
246	0xbc9acf9c	-0.018897824
247	0x3d837ec6	0.064206645
248	0x3d94ec4b	0.07271632
249	0x3d8b4daa	0.068019226
250	0xbd7fdc57	-0.06246599
251	0xbd8c9e0e	-0.06866084
252	0x3de637ce	0.11241113
253	0xbe18663a	-0.14882746
254	0x3d9b3ee1	0.075803526
255	0xba3e163a	-0.0007251237

std.constant4 f4 [64, 3, 3, 64]
0	0x3d8e1a96	0.069386646
1	0xbd3e2316	-0.04642018
2	0xbd9d5161	-0.076815374
3	0x3d5ff310	0.05467516
4	0xbc1ebeb9	-0.0096890265
5	0xbcbc8a7b	-0.023015251
6	0x3cd707d5	0.026248852
7	0x3e0bdbc3	0.13658051
8	0x3d4d3b22	0.05010522
9	0x3e14e81b	0.14541666
10	0x3ba58f35	0.005052472
11	0x3c1e1843	0.009649339
12	0x3d8f45de	0.06995748
13	0x3d2c8670	0.042120397
14	0x3d2a20c9	0.041535173
15	0x3cd8348e	0.026392248
16	0x3df51e80	0.11968708
17	0xb9dc0411	-0.000419647
18	0xbd14e64e	-0.03635245
19	0x3c9e348c	0.019312166
20	0xbd7e4a63	-0.06208266
21	0x3df7e3b1	0.121039756
22	0xbd4f576b	-0.050620478
23	0xbd8e8a99	-0.06960029
24	0x3d0c7b50	0.034297287
25	0x3d023b71	0.03179497
26	0xbae960f8	-0.0017805388
27	0x3d1ebf4d	0.038756657
28	0x3bd4f13b	0.0064984835
29	0x3d1d876a	0.03845922
30	0x3da0ff38	0.07861179
31	0xbd82ff7e	-0.063963875
32	0x3d693765	0.056937594
33	0xbd5e2354	-0.05423291
34	0x3d25a531	0.040440742
35	0x3d549370	0.05189842
36	0xbd190801	-0.03736115
37	0xbdaf402f	-0.08557164
38	0x3cecc750	0.028903633
39	0x3ceeb47f	0.029138802
40	0xbcc72f1e	-0.02431446
41	0x3ddc9df9	0.107723184
42	0xbc9767e9	-0.018482165
43	0x3d116702	0.035498627
44	0xbdf71a9a	-0.12065621
45	0x3d13469c	0.03595601
46	0xbd0c6421	-0.034275178
47	0xbcb8b8e4	-0.0225491
48	0xbd516b87	-0.051127937
49	0xbc625dfb	-0.013816352
50	0xbd381979	-0.044946168
51	0xbd86363b	-0.065533124
52	0x3d8bc0ac	0.068238586
53	0xbca0b4bf	-0.019617436
54	0x3d35555e	0.044270866
55	0xbd6f3551	-0.058400456
56	0xbd8964e8	-0.067086995
57	0xbcd6b5b7	-0.026209695
58	0xbd9776bf	-0.07395696
59	0x3d2d7afd	0.04235362
60	0x3d0e332c	0.03471677
61	0xbdc20002	-0.09472658
62	0xbce785b4	-0.028261997
63	0x3cfbfbd2	0.030759726
64	0xbd2af573	-0.041737985
65	0x3d1a56da	0.037680484
66	0xbcd28dd5	-0.025702396
67	0x3d834d1d	0.064111926
68	0x3d5558a2	0.05208648
69	0xbc2e7804	-0.010648731
70	0xbcdc817c	-0.026917212
71	0x3d591755	0.053000767
72	0x3c381734	0.011236001
73	0xbd123531	-0.03569526
74	0x3d88993e	0.06669854
75	0x3d6161d2	0.05502493
76	0x3cbce67e	0.023059126
77	0xbda249cb	-0.07924231
78	0x3def9068	0.11697465
79	0xbbf0d320	-0.007349387
80	0x3c43a059	0.011940085
81	0xbd442eef	-0.047896322
82	0xbd871f25	-0.06597737
83	0xbdb21af2	-0.08696546
84	0x3d5d7624	0.054067746
85	0x3defe256	0.11713092
86	0x3d3aa688	0.045568973
87	0xbdae86af	-0.085217826
88	0x3d757bb6	0.059932433
89	0xbe054ec1	-0.13018323
90	0xbda7cafa	-0.081930116
91	0xbd7394a2	-0.05946792
92	0x3d74adb3	0.059735965
93	0x3d1073b8	0.035266608
94	0x3d60099a	0.054696657
95	0x3d4e99eb	0.050439756
96	0x3d816efd	0.063199975
97	0xbc22f9e8	-0.009947278
98	0xbd0ddd7b	-0.03463505
99	0xbcc6de0c	-0.024275802
100	0x3c46a015	0.0121231275
101	0x3d4c4132	0.049866863
102	0x3d08afac	0.03337066
103	0x3cd589c5	0.02606667
104	0x3d5ab820	0.05339825
105	0xbb956e31	-0.004560255
106	0x3c8e7e34	0.017394163
107	0x3c4dce0a	0.012561331
108	0xbca57db7	-0.020201547
109	0x3cf26416	0.02958874
110	0x3b9c7410	0.004774578
111	0x3d4b11fa	0.04957769
112	0xbd05517b	-0.03254841
113	0x3c5c8f93	0.013461965
114	0x3c1626c9	0.009164521
115	0xbd053f82	-0.03253127
116	0xbd046742	-0.032325037
117	0x3d11ab5f	0.035563823
118	0x3b961595	0.0045802095
119	0xbd79629a	-0.06088505
120	0xbe2e4fd3	-0.17022638
121	0xbc195b0e	-0.009360088
122	0x3d1d2bac	0.038371727
123	0xbd881d9b	-0.06646272
124	0x3d61a5a8	0.055089623
125	0xbdb8dfd0	-0.09027064
126	0xbcffa822	-0.031208102
127	0xbda62470	-0.08112419
128	0x3d66ee2a	0.056379475
129	0xbdabf285	-0.08395866
130	0xbd98c12b	-0.07458719
131	0x3cc56f43	0.024100905
132	0x3d108624	0.035284176
133	0xbd2527f4	-0.040321305
134	0x3debaab4	0.115071684
135	0x3c7075f6	0.014676562
136	0xbda92719	-0.082594104
137	0xbdc784fe	-0.09742163
138	0x3d794fde	0.060867183
139	0x3d0e78ef	0.0347833
140	0xbd5f9124	-0.054581776
141	0xbd88fb25	-0.06688527
142	0x3d2051ea	0.03914062
143	0xbba3cba3	-0.0049986406
144	0x3d456230	0.048189342
145	0xbd78fd08	-0.060788184
146	0x3d16bdc7	0.03680208
147	0xbdc25bc4	-0.09490159
148	0xbd709b25	-0.058741707
149	0x3e8a2ece	0.26988834
150	0x3b5ecf6d	0.0033998147
151	0xbd0ff5ed	-0.035146642
152	0x3c3cc693	0.011521953
153	0xbe2a1084	-0.16607863
154	0xbe19aa1f	-0.15006302
155	0xbc6dafc3	-0.014507237
156	0xbcb47edf	-0.022033153
157	0x3d13bc27	0.036068108
158	0x3d84292f	0.06453168
159	0x3d56ec41	0.052471403
160	0x3d0a15b9	0.033712123
161	0xbdbf5bde	-0.09343694
162	0xba8dfb33	-0.001083231
163	0xbdc0151f	-0.093790285
164	0x3ba760da	0.005107981
165	0x3d3ee759	0.04660735
166	0xbd294b0e	-0.041331343
167	0x3d8a29be	0.06746243
168	0x3d1344ee	0.03595441
169	0x3d91fbb2	0.07128085
170	0xbd81ea84	-0.063435584
171	0xbcc37c8b	-0.023863098
172	0xbdf1acaa	-0.11800511
173	0x3b5f24a9	0.003404895
174	0x3d5abeed	0.053404737
175	0x3c94364a	0.018092293
176	0xbd070e62	-0.0329727
177	0xbda81e0f	-0.08208858
178	0xbdbc31c1	-0.09189177
179	0xbd2f1d29	-0.04275242
180	0xbd315301	-0.04329205
181	0xbd9345a3	-0.071910165
182	0x3da153a7	0.078772835
183	0x3d1bdfb8	0.03805515
184	0xbe0f0789	-0.13967718
185	0x3ccf779a	0.025325585
186	0xbda43a57	-0.0801894
187	0xbc2c49c4	-0.010515634
188	0x3d3cdb7a	0.046107747
189	0xbb412a87	-0.002947481
190	0x3dfa0c4e	0.12209378
191	0x3d186583	0.037206184
192	0xbd344e39	-0.04401991
193	0xbbd9fa02	-0.0066521177
194	0xbc3620f3	-0.011116254
195	0x3d8c2337	0.06842654
196	0x3b98303a	0.004644421
197	0xbbd8c561	-0.0066153263
198	0x3c3d1098	0.011539601
199	0xbd93cd18	-0.07216853
200	0x3b6aec90	0.0035846569
201	0xbce5877b	-0.028018704
202	0x3c8f13ad	0.017465437
203	0xbc1fa956	-0.009744963
204	0x3d89bba2	0.06725241
205	0xbd163893	-0.036675047
206	0xbda19d55	-0.07891337
207	0x3d6577ca	0.056022443
208	0xbd960937	-0.07325976
209	0x3ceac465	0.028658101
210	0xbd88d1e9	-0.06680662
211	0xbcdab780	-0.026698828
212	0xbcca35c1	-0.024683835
213	0x3bad3117	0.005285393
214	0x3d22ee7c	0.039778218
215	0xbe16a1c8	-0.14710152
216	0x3cf7034a	0.030152936
217	0xbd835ece	-0.06414567
218	0xbbd124bb	-0.0063825524
219	0x3c162e76	0.009166351
220	0xbb4d3fb1	-0.003131848
221	0x3d847f69	0.06469614
222	0xbd908897	-0.070573024
223	0x3d213c74	0.039364293
224	0xbb741d68	-0.0037248973
225	0xbc6a3ebd	-0.014297185
226	0xbd72e79e	-0.05930292
227	0xbdaf8ad5	-0.08571402
228	0xbc8f5521	-0.017496647
229	0xbdea1b86	-0.11431031
230	0xbda24651	-0.07923568
231	0x3d3e8b8a	0.046519794
232	0xbd50e858	-0.05100283
233	0x3c846b5b	0.016164472
234	0xbda809ab	-0.08204969
235	0x3d7abfcc	0.061218068
236	0xbe650ce7	-0.22368203
237	0xbd93108f	-0.07180893
238	0xbd49c579	-0.04926059
239	0xbd67db4c	-0.056605622
240	0x3d228ec3	0.03968693
241	0x3ce28b8a	0.027654428
242	0xbbeb081d	-0.007172598
243	0x3bf086a3	0.0073402687
244	0xbd2215a0	-0.039571404
245	0x3d432672	0.047644086
246	0xbd7083c4	-0.05871941
247	0xbd154ef0	-0.036452234
248	0xbcc3d41e	-0.023904856
249	0xbd2f0577	-0.04272982
250	0xbc085158	-0.008320175
251	0xbcb17021	-0.021659913
252	0x3b85f968	0.0040885694
253	0xbd0c1ce1	-0.03420723
254	0xbe3015b4	-0.17195779
255	0x3c19d44f	0.009388997
